models/NCPS_NM_50/model.pt (torch, 27448 bytes, 27 tensors)

weight f4 [5, 8]
-0.0070372904 0.35555857 -0.6131633 0.8004277 0.12563553 0.6484639 -0.19235305 0.59401745
-0.110599145 -0.5107745 -0.11619713 0.448515 0.017908322 -0.9800676 0.26481244 -0.5041222
0.76283896 0.41885972 0.20380741 0.4716594 0.55281085 1.0398777 0.51202506 0.30924067
0.26848063 0.34895712 0.49542707 0.868005 -0.908702 0.3298249 -0.7466687 -0.9288045
0.12686911 1.384202 -0.0259666 -0.20491605 -0.32345113 0.8415652 0.1915975 0.48046088
00000000: 1299 e6bb c60b b63e 45f8 1cbf d4e8 4c3f
00000010: 9aa6 003e bb01 263f 33f8 44be 8711 183f
00000020: ce81 e2bd 1ec2 02bf c3f8 edbd c2a3 e53e
00000030: 79b4 923c b6e5 7abf 7f95 873e 270e 01bf
00000040: 6a49 433f c874 d63e e4b2 503e 577d f13e
00000050: 0385 0d3f b61a 853f 1314 033f cb54 9e3e
00000060: 4b76 893e 82aa b23e 9ea8 fd3e 9335 5e3f
00000070: b2a0 68bf cfde a83e ae25 3fbf 22c6 6dbf
00000080: fae9 013e 882d b13f e8b7 d4bc 83d5 51be
00000090: 639b a5be d170 573f 2332 443e f8fe f53e

bias f4 [5]
-0.7046725 0.010845456 0.19740938 0.00349899 0.3893613
00000000: 6b65 34bf 24b1 313c af25 4a3e 504f 653b
00000010: 5d5a c73e

weight f4 [5, 8]
-0.004432355 -0.35227612 0.9877005 0.20370114 -0.72831106 0.27779275 -0.9240427 0.74473876
-0.37895614 -0.22919215 -0.52201813 0.8309905 0.018893043 -0.55297804 0.8914803 -0.99310935
0.97744864 0.71449614 0.336642 0.5810871 0.63797647 0.8454296 -0.28745207 -0.2072559
-1.028674 0.23766172 0.10467608 0.054065492 -1.1040856 -0.5850745 -0.4244299 -0.8427156
0.77805877 0.8611336 -0.29258215 0.70453763 -0.13151687 -0.5724776 -1.3316532 -0.15920855
00000000: 4a3d 91bb 895d b4be f1d9 7c3f 0897 503e
00000010: 9872 3abf da3a 8e3e 108e 6cbf 33a7 3e3f
00000020: 8a06 c2be 59b1 6abe fba2 05bf cbbb 543f
00000030: 95c5 9a3c f88f 0dbf 0e38 643f 6a3c 7ebf
00000040: 133a 7a3f 38e9 363f 575c ac3e 20c2 143f
00000050: 6d52 233f 136e 583f eb2c 93be e43a 54be
00000060: 97ab 83bf 985d 733e 6a60 d63d c773 5d3d
00000070: ad52 8dbf 71c7 15bf e04e d9be 36bc 57bf
00000080: dc2e 473f 4073 5c3f 54cd 95be 945c 343f
00000090: 5cac 06be e48d 12bf 9d73 aabf 9107 23be

bias f4 [5]
-0.45204213 0.03183886 0.18433717 -0.19315928 0.5624215
00000000: 1172 e7be 7769 023d e2c2 3c3e 8ccb 45be
00000010: dbfa 0f3f

weight f4 [5, 8]
0.62405646 0.44780535 0.35873112 0.27701417 0.029755784 0.22048439 -1.7024957 -0.35775423
-0.020079376 0.47709996 0.42394337 0.42650786 -0.2914944 -0.46610558 -0.8529719 0.6808659
0.23804541 -0.3463397 0.29020193 0.17796072 0.29532012 0.14296468 0.04941922 0.02694343
-0.077297665 -0.90924406 -0.036406223 -1.7041811 -0.24077404 -0.055156052 -0.023928875 0.87234014
0.31915167 0.200207 -0.074812785 0.6184974 -1.0516983 0.07311816 -0.1501045 -0.921892
00000000: 2ac2 1f3f be46 e53e 9bab b73e cdd4 8d3e
00000010: 67c2 f33c a9c6 613e 61eb d9bf 902b b7be
00000020: 817d a4bc 7246 f43e 1b0f d93e 3d5f da3e
00000030: c13e 95be 64a5 eebe 5e5c 5abf 3a4d 2e3f
00000040: 2dc2 733e 7053 b1be 5995 943e 563b 363e
00000050: 3334 973e 5565 123e cf6b 4a3d 78b8 dc3c
00000060: 3d4e 9ebd 38c4 68bf b11e 15bd 9b22 dabf
00000070: 788d 76be 50eb 61bd 7d06 c4bc af51 5f3f
00000080: d967 a33e 1003 4d3e 7237 99bd d855 1e3f
00000090: 0d9e 86bf f9be 953d feb4 19be 1d01 6cbf

bias f4 [5]
-0.2960207 -0.6113606 -0.46744952 0.40808836 0.48494506
00000000: 0690 97be 2182 1cbf 8b55 efbe f5f0 d03e
00000010: b84a f83e

weight f4 [5, 8]
-0.43900976 -0.26018232 -0.46615878 0.4256873 0.5117649 -0.32530883 -2.0200243 -0.3846306
0.36733463 -0.17304195 0.31844997 0.69069636 -0.2615935 0.38145748 -1.4103588 -0.4527622
-0.96106327 0.0073185745 0.20634466 0.32200173 0.9022213 0.07703334 0.1843705 0.52235675
-0.12688215 -0.5382161 -0.092773564 -0.9032786 -0.31082207 -0.72321856 0.11478558 0.19157615
0.32685262 0.6107964 0.60021937 0.1766663 -1.0851326 0.45457757 -0.59211296 0.060132284
00000000: e3c5 e0be 9e36 85be 5dac eebe b0f3 d93e
00000010: 0603 033f e18e a6be 1448 01c0 4dee c4be
00000020: 4913 bc3e e931 31be e00b a33e 7ad1 303f
00000030: 95ef 85be 654e c33e a386 b4bf 72d0 e7be
00000040: 3e08 76bf a7d0 ef3b 044c 533e 69dd a43e
00000050: faf7 663f a8c3 9d3d 9fcb 3c3e 2cb9 053f
00000060: 65ed 01be 88c8 09bf 1100 bebd 443d 67bf
00000070: 1224 9fbe da24 39bf b414 eb3d 8a2c 443e
00000080: 3a59 a73e 275d 1c3f faa7 193f 03e8 343e
00000090: a0e5 8abf 64be e83e b794 17bf 454d 763d

bias f4 [5]
-0.51103836 -0.7524354 -0.13510413 0.8157425 0.6534851
00000000: 69d3 02bf 9b9f 40bf bd58 0abe 80d4 503f
00000010: cd4a 273f

weight f4 [6, 11]
0.10985679 0.39777574 -0.1165157 -0.46193403 0.3698733 -0.9203878 0.31811407 0.54460955
-0.5205757 0.25005496 0.33458987 -0.44588292 0.3820617 -0.2617203 -0.37154275 -0.24856314
0.10674885 -0.19891267 -1.1219237 0.47887513 -0.8161574 -0.62333184 0.113930956 0.2794352
-0.1977442 -0.43126732 0.15208705 -0.5273489 -1.1853099 -0.3701913 -0.78915817 -0.53704774
-0.34565789 0.31105775 0.38578957 0.45520788 -0.035672996 0.39041704 0.7676846 -0.3110653
-0.9327735 -0.2730633 -0.129391 -0.6785518 0.06351726 0.5746585 -0.7593675 0.5568957
-0.61364794 0.44647142 0.18922916 0.032641977 0.89997387 -0.45918712 -0.5753067 0.14162499
0.042128295 0.0846568 0.38127545 0.15954994 -0.4693867 0.9801714 0.5195731 0.78492725
-0.19414708 0.23200409
00000000: 99fc e03d 43a9 cb3e c99f eebd 9e82 ecbe
00000010: 0860 bd3e 899e 6bbf d9df a23e 886b 0b3f
00000020: 7344 05bf 3407 803e 5d4f ab3e c44a e4be
00000030: 979d c33e 3400 86be da3a bebe 5687 7ebe
00000040: 249f da3d c3af 4bbe 329b 8fbf 1f2f f53e
00000050: b1ef 50bf ad92 1fbf a254 e93d 2112 8f3e
00000060: 757d 4abe 12cf dcbe b5bc 1b3e 5600 07bf
00000070: 3cb8 97bf b789 bdbe 4506 4abf f67b 09bf
00000080: 12fa b0be f642 9f3e 3686 c53e 0211 e93e
00000090: d91d 12bd bee4 c73e fa86 443f f343 9fbe
000000a0: 3eca 6ebf f4ce 8bbe 137f 04be 92b5 2dbf
000000b0: 5615 823d d21c 133f e965 42bf b790 0e3f
000000c0: 0818 1dbf e797 e43e 4ac5 413e 98b3 053d
000000d0: b064 663f 931a ebbe 4d47 13bf 2406 113e
000000e0: b88e 2c3d 8b60 ad3d 8936 c33e 0f61 233e
000000f0: 7453 f0be 83ec 7a3f be02 053f fef0 483f
00000100: 7ece 46be 7b92 6d3e

bias f4 [6]
0.18510918 -0.13335319 -0.44545156 -0.24674663 -0.23064579 -0.0842118
00000000: 438d 3d3e bd8d 08be 3a12 e4be 26ab 7cbe
00000010: 692e 6cbe 3c77 acbd

weight f4 [6, 11]
-0.775059 -0.2848194 -0.09667595 -0.100943685 0.48975128 -0.08536755 0.23700833 0.747433
0.37677887 -0.17072889 0.41595766 0.11849267 0.14356324 0.31101704 0.033913992 -0.13276847
0.90566087 0.15797023 -0.2554023 0.43641782 -0.45217413 0.2683883 0.084849566 -0.117557414
-0.3156002 0.51022696 -0.07180712 -0.09354181 -0.4987032 -0.20874345 -1.0504217 0.56222993
-0.9885521 -0.395997 -0.32224312 0.19224532 -0.526939 -0.14421019 0.5674074 -1.0533309
-0.08132089 -0.06837324 0.10181209 -0.05663833 0.46222258 0.3973742 -0.20096837 0.120520875
0.2653493 -0.46393147 0.82155323 -0.48382273 0.33126092 -0.78870255 -0.78172547 0.2256604
0.21943048 -0.071814135 0.49526787 0.5257687 -0.075362 0.33295932 1.4357067 0.24424486
-0.39874223 0.3967289
00000000: 446a 46bf d9d3 91be 0afe c5bd 90bb cebd
00000010: aec0 fa3e 2fd5 aebd 50b2 723e c557 3f3f
00000020: 29e9 c03e 8ed3 2ebe 67f8 d43e 49ac f23d
00000030: 3e02 133e a03d 9f3e 66e9 0a3d 75f4 07be
00000040: 64d9 673f f3c2 213e 17c4 82be 2872 df3e
00000050: 5e83 e7be 316a 893e 9cc5 ad3d f1c1 f0bd
00000060: 5996 a1be 3c9e 023f 9d0f 93bd d992 bfbd
00000070: 0756 ffbe d8c0 55be 3874 86bf 4dee 0f3f
00000080: c011 7dbf 1ec0 cabe 0dfd a4be f5db 443e
00000090: 79e5 06bf d6ab 13be 9d41 113f 8cd3 86bf
000000a0: 918b a6bd 4507 8cbd db82 d03d 98fd 67bd
000000b0: 70a8 ec3e a274 cb3e a7ca 4dbe a6d3 f63d
000000c0: dddb 873e 6d88 edbe 5051 523f 9db7 f7be
000000d0: 089b a93e 69e8 49bf 291f 48bf 8513 673e
000000e0: 62b2 603e 4a13 93bd c093 fd3e c798 063f
000000f0: 6457 9abd a579 aa3e 3dc5 b73f 531b 7a3e
00000100: f127 ccbe 0d20 cb3e

bias f4 [6]
0.400606 0.14507294 -0.46754053 0.3578273 -0.2887452 -0.2660204
00000000: 3b1c cd3e 008e 143e 7961 efbe 2435 b73e
00000010: 69d6 93be d333 88be

weight f4 [6, 11]
0.28018126 0.45719376 -0.6514678 -0.16307053 -0.27296266 -0.5725287 0.4562274 0.22952805
-0.645133 0.08160414 0.09178032 0.054057136 0.74950427 -0.97922295 0.4195174 0.3539692
0.7596438 0.42187014 -1.2184422 -0.20618722 0.29988274 -0.05625162 -0.3863791 -0.4632714
0.048588615 -0.6864941 0.120048925 -0.39255708 0.8503432 0.6509766 -0.81983757 0.34038037
0.37401086 -0.4646643 0.27318054 -0.6238876 -0.12949698 -0.4301578 -0.07688692 -0.3469258
-1.399561 -0.3757888 -0.51729137 -1.2690206 0.2977689 0.4204546 -0.7766503 0.606935
-0.07586947 -0.4500331 -0.61608577 0.98360556 0.35405633 -0.18284875 -0.44351968 -0.5457582
0.6914307 0.43362185 0.74564475 0.3061077 0.09265833 -0.81546026 -0.7568378 0.57170695
1.0896218 -0.87958366
00000000: eb73 8f3e 4d15 ea3e 98c6 26bf f6fb 26be
00000010: c3c1 8bbe 3e91 12bf a396 e93e 6709 6b3e
00000020: 7027 25bf 1220 a73d 52f7 bb3d 046b 5d3d
00000030: 83df 3f3f 5bae 7abf fcca d63e 733b b53e
00000040: 0478 423f 5dff d73e eaf5 9bbf be22 53be
00000050: 3b8a 993e 1968 66bd 7bd3 c5be e931 edbe
00000060: db04 473d 14be 2fbf 36dc f53d 3efd c8be
00000070: 18b0 593f 67a6 263f e0e0 51bf 5646 ae3e
00000080: 5a7e bf3e 7be8 edbe 52de 8b3e 19b7 1fbf
00000090: db9a 04be a53d dcbe e476 9dbd 42a0 b1be
000000a0: d124 b3bf 6467 c0be 356d 04bf 446f a2bf
000000b0: 2a75 983e d345 d73e 8ed2 46bf 1860 1b3f
000000c0: 7461 9bbd bd6a e6be ccb7 1dbf 93cd 7b3f
000000d0: df46 b53e b43c 3bbe 0315 e3be cfb6 0bbf
000000e0: 9a01 313f af03 de3e 93e2 3e3f 26ba 9c3e
000000f0: a7c3 bd3d 01c2 50bf 1fc0 41bf 635b 123f
00000100: ba78 8b3f 652c 61bf

bias f4 [6]
-0.50014895 0.39376414 -0.2684488 -0.13882415 -0.49397707 -0.0005154792
00000000: c309 00bf 749b c93e 1f72 89be eb27 0ebe
00000010: 90ea fcbe 3921 07ba

weight f4 [6, 11]
-0.559013 -0.26337385 -0.3285937 -0.60238916 -0.44375673 -0.6927703 0.2834123 0.32171923
0.3775003 0.1340438 0.021878932 0.2736188 0.7537439 -0.9557673 0.3254655 0.31600568
0.44725674 0.5460047 -1.0794815 0.29755783 0.24657738 0.6368125 0.29848674 -0.02403871
-0.09066424 0.05394613 -0.70633215 -0.41775405 -0.058428288 0.9576107 -0.3395033 -0.057334576
1.2417071 0.072798066 -0.086687215 0.33188185 -0.34647512 0.18074062 0.6385286 0.45589405
-1.2730137 -0.28783286 -0.3025927 -1.5192916 -0.010919444 0.46819088 -0.6822736 -0.10279017
-0.006338886 0.059120446 -0.72212785 1.3644642 -0.42357606 -0.5579493 -0.5983971 0.04191552
0.5128662 -0.3417257 0.60045964 -0.5414663 0.14191727 0.04030416 -0.27719808 0.46804327
-0.020934008 -1.3383316
00000000: 7a1b 0fbf f0d8 86be 6f3d a8be 2d36 1abf
00000010: 1534 e3be 6559 31bf 6b1b 913e 62b8 a43e
00000020: b847 c13e c742 093e 723b b33c c317 8c3e
00000030: 5cf5 403f 2aad 74bf 6aa3 a63e 7fcb a13e
00000040: d6fe e43e f7c6 0b3f 732c 8abf 8059 983e
00000050: c87e 7c3e 2506 233f 41d3 983e d4ec c4bc
00000060: 2cae b9bd 9ef6 5c3d 2fd2 34bf dce3 d5be
00000070: 8052 6fbd fa25 753f 60d3 adbe a9d7 6abd
00000080: 42f0 9e3f 2717 953d 1189 b1bd 6bec a93e
00000090: 3065 b1be 1214 393e 9c76 233f f26a e93e
000000a0: 1df2 a2bf d45e 93be 6eed 9abe 2678 c2bf
000000b0: 78e7 32bc b7b6 ef3e 7ca9 2ebf a783 d2bd
000000c0: 6eb6 cfbb 4828 723d 5fdd 38bf c3a6 ae3f
000000d0: f6de d8be c4d5 0ebf 8d30 19bf 9caf 2b3d
000000e0: 334b 033f acf6 aebe b9b7 193f 899d 0abf
000000f0: c352 113e fa15 253d e8ec 8dbe 5ea3 ef3e
00000100: cc7d abbc 734e abbf

bias f4 [6]
-0.11169117 0.33598876 -0.2179184 -0.025597084 -0.5550045 0.38852376
00000000: 57be e4bd b806 ac3e 0026 5fbe fab0 d1bc
00000010: c614 0ebf 96ec c63e

weight f4 [2, 8]
-0.7417999 0.45345056 0.5933055 0.817048 -0.73453826 -0.3625873 -0.3636537 -0.07427084
-0.21286106 -0.7754567 -0.16192318 0.1267649 -0.73286796 0.19492641 -0.3475725 0.50616455
00000000: 99e6 3dbf ac2a e83e dfe2 173f 0f2a 513f
00000010: b30a 3cbf 0ba5 b9be d130 babe 4f1b 98bd
00000020: 40f8 59be 5584 46bf 31cf 25be a8ce 013e
00000030: 3c9d 3bbf ca9a 473e 06f5 b1be 0094 013f

bias f4 [2]
-0.381011 0.09795846
00000000: e013 c3be 729e c83d

weight f4 [2, 8]
-0.5950816 0.11711722 0.4394077 -0.04919667 -0.11710919 -0.5953731 -0.64565694 0.047728766
-0.2664452 -0.7081757 0.37674 0.3966413 -0.25123245 -0.74248093 0.50387794 1.5279144
00000000: 4557 18bf 27db ef3d 0cfa e03e 7382 49bd
00000010: f1d6 efbd 5f6a 18bf c649 25bf 3d7f 433d
00000020: 816b 88be 014b 35bf 11e4 c03e 9214 cb3e
00000030: 8aa1 80be 3b13 3ebf 25fe 003f b392 c33f

bias f4 [2]
0.07886458 0.022139544
00000000: c183 a13d fd5d b53c

weight f4 [2, 8]
-0.15436503 0.46550694 0.71230114 -0.26350558 0.74789536 -0.16911933 0.78174806 -0.21479312
-0.07378766 0.8555582 -0.33422643 0.31806532 -0.16524354 -0.62618226 -0.7586126 -0.6033658
00000000: de11 1ebe ed56 ee3e 5e59 363f 34ea 86be
00000010: 1276 3f3f 9e2d 2dbe a420 483f baf2 5bbe
00000020: fc1d 97bd dd05 5b3f ba1f abbe 75d9 a23e
00000030: 9a35 29be 7b4d 20bf 6f34 42bf 2e76 1abf

bias f4 [2]
0.09667801 0.34047803
00000000: 1fff c53d 2353 ae3e

weight f4 [2, 8]
0.10497342 -0.08008026 1.0872517 0.679388 0.44661048 0.48851565 0.4250073 -0.66376156
-0.23617975 1.0785947 0.29434976 -0.5717937 0.8014615 0.48997244 -1.2843595 -0.33099598
00000000: 4efc d63d 1f01 a4bd 102b 8b3f 5fec 2d3f
00000010: 21aa e43e b91e fa3e 8f9a d93e 47ec 29bf
00000020: 1bd9 71be 640f 8a3f 03b5 963e 1261 12bf
00000030: 952c 4d3f abdd fa3e e465 a4bf 4e78 a9be

bias f4 [2]
-0.30702046 0.32839364
00000000: c931 9dbe 3623 a83e

weight f4 [52, 3]
0.27030206 0.45034164 -0.21382208 1.1631898 0.29648876 -0.22998415 0.24598981 1.1354693
-0.017791757 0.23727283 -0.6354166 0.46729922 0.584135 0.7351266 0.1914569 0.9656764
-1.0117106 -0.08781242 -0.8569628 -0.6694821 -0.1255335 -1.1200726 0.9698203 -0.10282719
-0.36114144 -1.0751106 0.2271991 -0.20297855 1.1403487 -0.14138459 -0.61026466 0.5634633
0.061320767 -0.786016 0.5573388 0.27143857 -0.18459247 1.1189837 -0.1770133 -0.21472171
-0.059233442 -0.38722995 0.55614585 0.321852 -0.5829588 0.10840145 0.4378306 0.14505213
0.47251073 -0.1731493 0.050665196 0.10447051 0.18914631 0.38282144 0.3313065 -0.7338662
-0.27888167 0.079789326 0.14767995 0.027887924 -0.15494332 -0.29483226 0.2729811 -0.12259673
-0.07878051 -0.24513254 0.5560791 0.61261 0.44945458 -0.38861707 0.11685153 -0.09389708
0.11007197 -0.07747861 0.25240514 0.6945674 -1.1685 -0.031675715 0.5607913 1.0275849
0.8417511 -0.4166376 -0.28408095 0.02114058 0.024392134 -0.68247133 -1.5110209 -0.33594862
-0.6983453 -0.2733713 0.39261422 -0.121766016 1.2358835 -0.106891796 0.20332721 0.4104028
-0.30031252 -0.3909786 0.50249964 -0.09088108 -0.20856275 0.5414472 -0.028695513 -0.21354955
-0.84002125 0.2299313 -0.53528655 -0.2743163 -1.2817844 0.8025342 0.06927645 0.98855954
0.90824187 0.95657855 -0.08749512 0.03833568 -0.07050089 0.9644789 0.1382266 -0.37321088
0.1063613 0.29863477 0.12748852 0.026721869 0.29911834 -0.8445754 0.10919511 -1.7325983
0.426594 -0.40956566 0.29065594 0.2560059 0.19173467 -0.42983824 -0.085154645 -0.21661867
-0.50722885 -0.063804485 -0.30496842 -0.14747138 -0.16750924 -0.638463 -0.3564843 -0.047928244
-0.25385076 0.31430689 -0.5456177 -1.132041 0.8406156 -0.1998156 1.0420451 0.32052255
-0.19758183 0.24649148 -1.387776 0.29881635
00000000: 0865 8a3e 2e93 e63e 2df4 5abe 67e3 943f
00000010: 60cd 973e f780 6bbe c1e4 7b3e 0f57 913f
00000020: 05c0 91bc a6f7 723e aaaa 22bf d841 ef3e
00000030: df89 153f 4231 3c3f 470d 443e 9236 773f
00000040: bc7f 81bf 00d7 b3bd ea61 5bbf 2e63 2bbf
00000050: db8b 00be 8a5e 8fbf 2546 783f 1097 d2bd
00000060: 88e7 b8be 399d 89bf e2a6 683e 9cd9 4fbe
00000070: f2f6 913f 1fc7 10be 4e3a 1cbf 213f 103f
00000080: 7c2b 7b3d 5838 49bf c1ad 0e3f fff9 8a3e
00000090: cf05 3dbe dc3a 8f3f f942 35be 02e0 5bbe
000000a0: c49e 72bd 0143 c6be 935f 0e3f c9c9 a43e
000000b0: ca3c 15bf 9401 de3d 552b e03e 8c88 143e
000000c0: edec f13e 0d4e 31be 4f86 4f3d a2f4 d53d
000000d0: 92af 413e 2c01 c43e 01a1 a93e a8de 3bbf
000000e0: 94c9 8ebe 9668 a33d 6a39 173e 3775 e43c
000000f0: 76a9 1ebe 41f4 96be 2ec4 8b3e ff13 fbbd
00000100: ad57 a1bd 0604 7bbe 335b 0e3f 02d4 1c3f
00000110: e91e e63e d1f8 c6be db4f ef3d 1d4d c0bd
00000120: 6a6d e13d 1bad 9ebd 3f3b 813e 2bcf 313f
00000130: 6891 95bf 65be 01bd 0590 0f3f e787 833f
00000140: 007d 573f 8651 d5be 0f73 91be 022f ad3c
00000150: 03d2 c73c 71b6 2ebf 2269 c1bf 7501 acbe
00000160: c2c6 32bf 53f7 8bbe bb04 c93e 7660 f9bd
00000170: 6e31 9e3f 16ea dabd 0235 503e 5120 d23e
00000180: 90c2 99be 592e c8be d1a3 003f dc1f babd
00000190: 7991 55be 499c 0a3f da12 ebbc bcac 5abe
000001a0: a20b 57bf 1c73 6b3e 8a08 09bf 3073 8cbe
000001b0: 8311 a4bf e272 4d3f d0e0 8d3d 3d12 7d3f
000001c0: 8a82 683f 55e2 743f a430 b3bd e005 1d3d
000001d0: c562 90bd 17e8 763f 468b 0d3e 7f15 bfbe
000001e0: f4d3 d93d a8e6 983e 5a8c 023e d2e7 da3c
000001f0: 0a26 993e 1836 58bf b0a1 df3d c8c5 ddbf
00000200: 876a da3e 97b2 d1be dbd0 943e 3513 833e
00000210: 1856 443e c213 dcbe 8f65 aebd 49d1 5dbe
00000220: c0d9 01bf edab 82bd d224 9cbe bd02 17be
00000230: 8b87 2bbe 5072 23bf 1c85 b6be 6850 44bd
00000240: baf8 81be d5ec a03e 9aad 0bbf b8e6 90bf
00000250: 9532 573f 769c 4cbe bc61 853f 881b a43e
00000260: e452 4abe 4368 7c3e a5a2 b1bf 75fe 983e

bias f4 [52]
-0.5714293 -0.023461843 0.19600365 0.38874316 -0.22607987 0.06491132 -0.14910783 -0.13541779
0.09095143 0.11925554 0.37865016 -0.13121189 -0.03387841 -0.61142784 -0.05627607 0.10409946
-0.035022784 0.1420201 0.45758823 0.009063751 0.8317046 0.17105547 -0.15026225 -0.29497418
-0.33557191 -0.34553164 0.18258266 1.0733389 0.09407102 0.72066814 0.7710187 1.020626
0.6366544 0.76853275 0.43327335 -0.09064958 0.4854085 0.5413381 -0.032021075 -0.28490314
0.4785535 0.25112098 -0.03445116 0.39873 0.7522825 0.16463019 0.8911429 0.37663636
0.20705342 0.35638937 0.0853411 -0.13130419
00000000: 3149 12bf 0d33 c0bc 2eb5 483e 5809 c73e
00000010: 7b81 67be 3af0 843d b9af 18be f6aa 0abe
00000020: be44 ba3d 403c f43d 6fde c13e 695c 06be
00000030: 16c4 0abd 8986 1cbf bd81 66bd 1932 d53d
00000040: 0d74 0fbd b86d 113e 0149 ea3e 2180 143c
00000050: 98ea 543f 2a29 2f3e 59de 19be db06 97be
00000060: 15d0 abbe 86e9 b0be f3f6 3a3e 2b63 893f
00000070: 4fa8 c03d b57d 383f 7b61 453f dfa3 823f
00000080: c8fb 223f 90be 443f 01d6 dd3e 7da6 b9bd
00000090: 7787 f83e 2295 0a3f 8828 03bd d3de 91be
000000a0: f704 f53e ee92 803e a91c 0dbd 5726 cc3e
000000b0: 9695 403f d194 283e f121 643f 7bd6 c03e
000000c0: d005 543e ab78 b63e 51c7 ae3d 9b74 06be

weight f4 [52, 13]
0.047762483 -0.48006618 0.16590577 -0.55770606 0.3315485 -0.5399741 -0.012050772 0.6303379
0.2941529 -0.2255993 0.040046852 0.32506847 0.3348343 0.5663363 -0.1772929 -0.15849498
-0.9639091 -0.23628177 -0.1818078 -0.19885658 0.5407471 -0.41580328 0.28603917 0.89930385
-0.25331995 0.0777299 0.36879838 -0.3308315 -0.012933034 0.5486257 0.32716104 0.28716278
-0.38521126 0.059847992 -0.060115304 0.14916159 0.34844732 -0.17841992 0.009493466 0.10645486
-0.65645355 0.1464483 -0.37612444 0.006604622 0.5624695 -0.8333766 -0.194002 0.26576492
-0.9904525 0.32027516 -0.24588619 0.49007007 0.61099654 -0.74938905 0.017747788 0.035198186
-0.3503272 -0.40776244 0.1498322 -0.054223128 0.0969421 0.5002505 0.8351974 -0.0918952
-0.37682974 -0.038387816 -0.06151819 0.09081612 -1.0809201 -0.7182289 -0.12543146 0.018026961
0.19237845 0.3202075 -0.0084327655 0.5324175 -0.2114741 0.128115 0.36191043 0.23982792
-0.67419267 0.29202634 -0.32838303 -0.62624717 -0.022057857 0.096701816 -0.0044211815 0.4486677
0.26669556 0.07491297 -0.13563284 0.38813058 -0.38393202 -0.013609522 -0.49289265 -0.23790516
-0.35200226 -0.15540908 -0.12708126 -0.03674873 0.031325266 0.2240737 0.20070322 -0.08822666
0.10558874 0.13380927 -0.19747314 -0.29838255 -0.5504124 -0.08453007 0.027355738 0.60103625
0.03796052 -0.1535521 0.2115975 0.28196594 0.36966434 0.41626653 -0.62003756 0.52623606
-0.10105302 0.2506622 0.28267688 -0.18814264 -0.33623 -0.2025541 -0.19322182 0.071171686
0.0040458143 -0.15357883 0.56932664 -0.3902899 0.006382537 -0.4620064 -0.2835577 -0.71887696
0.4539973 0.18200445 0.49220502 0.27128428 0.123427585 0.71345425 -0.5291855 -0.37333757
0.0072223917 0.32095832 0.5387816 -0.08864292 -0.28493467 0.017200192 -0.30040744 0.4126622
-0.37936288 -0.77379537 0.56743145 -0.20959893 -0.14231811 0.050795164 0.18840724 0.47888988
0.44569916 -0.12891114 0.27217388 -0.16742381 0.15761597 0.044661608 -0.39491382 0.2760424
-0.37147713 0.3679172 -0.48536232 0.2459957 -1.1460533 0.06392653 -0.21588556 -0.6250182
0.38624328 0.21075593 -0.15271112 0.032662 0.360546 0.32802945 -0.07272389 0.29298496
-1.1442446 0.88964397 -0.29934967 -0.8185066 0.124390624 0.45340312 -0.67801833 0.5879323
0.4907099 -0.08587867 -0.069532804 0.48441872 0.19003512 -0.7060298 -0.74777246 -1.3701258
-0.7588993 0.2845622 -0.34067738 0.09224805 1.4112431 0.5473542 -0.08414781 -0.771058
-0.19828789 0.0133921625 -0.08138452 0.46536806 0.31277335 -0.4648321 -0.27428645 0.19695608
0.15844874 0.15156186 -0.35077667 -0.13382284 0.532157 0.14262949 1.2123622 -0.83020794
0.0062289494 -0.25486848 0.10321983 0.114513956 1.0261884 -0.389136 -0.00534568 -0.41655514
-0.19944504 -0.108402304 0.56726295 -0.08584774 -0.20157464 -0.55744654 -0.99858725 -0.29304394
-0.10336506 0.03059634 -0.23648782 0.24910094 0.90742236 0.47729242 -0.5377493 1.1474575
-1.0677103 1.2510766 -1.2090569 0.38394293 -0.014182919 -0.6356554 1.1267436 0.3963555
00000000: 98a2 433d 3ccb f5be 34e3 293e d3c5 0ebf
00000010: bac0 a93e be3b 0abf 9a70 45bc d35d 213f
00000020: 359b 963e 8103 67be 2b08 243d 606f a63e
00000030: 676f ab3e 6afb 103f 458c 35be 824c 22be
00000040: bfc2 76bf d9f3 71be d32b 3abe 0fa1 4bbe
00000050: 676e 0a3f 2be4 d4be ba73 923e c738 663f
00000060: 27b3 81be db30 9f3d 24d3 bc3e bf62 a9be
00000070: 14e5 53bc bc72 0c3f a781 a73e 0007 933e
00000080: 693a c5be 2b23 753d 773b 76bd d1bd 183e
00000090: b067 b23e b6b3 36be 7b8a 1b3c 0105 da3d
000000a0: 570d 28bf 8bf6 153e 6293 c0be 966b d83b
000000b0: 00fe 0f3f 2b58 55bf 76a8 46be 5712 883e
000000c0: 4c8e 7dbf 1bfb a33e 97c9 7bbe 77ea fa3e
000000d0: 456a 1c3f f6d7 3fbf cf63 913c f92b 103d
000000e0: 165e b3be 3dc6 d0be 9d6d 193e 1219 5ebd
000000f0: 9489 c63d 6b10 003f 7fcf 553f 8d33 bcbd
00000100: d4ef c0be 8b3c 1dbd 7ffa 7bbd cdfd b93d
00000110: 975b 8abf d9dd 37bf 1b71 00be 47ad 933c
00000120: dbfe 443e 3df2 a33e 9529 0abc 834c 083f
00000130: ab8c 58be 9430 033e 534c b93e 7395 753e
00000140: e497 2cbf 7a84 953e d221 a8be bc51 20bf
00000150: aeb2 b4bc 9a0b c63d 8fdf 90bb c6b7 e53e
00000160: 528c 883e f96b 993d 56e3 0abe 0db9 c63e
00000170: bd92 c4be 79fa 5ebc 6d5c fcbe 699d 73be
00000180: a439 b4be 8f23 1fbe 9721 02be d685 16bd
00000190: ec4e 003d 9373 653e 2585 4d3e 2eb0 b4bd
000001a0: e93e d83d 4c05 093e 6636 4abe 99c5 98be
000001b0: d4e7 0cbf 1a1e adbd 2419 e03c 83dd 193f
000001c0: 7d7c 1b3d c33c 1dbe 04ad 583e d75d 903e
000001d0: a544 bd3e e320 d53e c8ba 1ebf 68b7 063f
000001e0: e3f4 cebd cc56 803e 06bb 903e 77a8 40be
000001f0: 5726 acbe 586a 4fbe f1db 45be 76c2 913d
00000200: c092 843b c543 1dbe 64bf 113f 14d4 c7be
00000210: 9a24 d13b 1a8c ecbe 7a2e 91be 5208 38bf
00000220: 5672 e83e 605f 3a3e 4c02 fc3e c6e5 8a3e
00000230: 9ac7 fc3d f0a4 363f b378 07bf 1a26 bfbe
00000240: d0a9 ec3b a654 a43e 97ed 093f 6b8a b5bd
00000250: f5e2 91be 6be7 8c3c 01cf 99be 7648 d33e
00000260: da3b c2be 7417 46bf 3043 113f 1aa1 56be
00000270: d7bb 11be 970e 503d d4ed 403e 0e31 f53e
00000280: ae32 e43e 4801 04be 605a 8b3e 2671 2bbe
00000290: 1566 213e 17ef 363d 2532 cabe 6e55 8d3e
000002a0: 4032 bebe a55f bc3e 6981 f8be 4ce6 7b3e
000002b0: e0b1 92bf eaeb 823d 1b11 5dbe 3101 20bf
000002c0: aec1 c53e 67d0 573e 4e60 1cbe 97c8 053d
000002d0: 7c99 b83e 7af3 a73e 43f0 94bd 2002 963e
000002e0: 9b76 92bf b5bf 633f 5c44 99be a689 51bf
000002f0: 83c0 fe3d 7424 e83e 9c92 2dbf bb82 163f
00000300: 543e fb3e 28e1 afbd 3767 8ebd bb05 f83e
00000310: 9198 423e 5ebe 34bf 046e 3fbf 4860 afbf
00000320: 3947 42bf 23b2 913e 446d aebe 8cec bc3d
00000330: 9da3 b43f 681f 0c3f b055 acbd 0f64 45bf
00000340: fb0b 4bbe cd6a 5b3c edac a6bd b944 ee3e
00000350: d423 a03e 79fe edbe 466f 8cbe dbae 493e
00000360: 6340 223e 0833 1b3e 0099 b3be db08 09be
00000370: 713b 083f 770d 123e af2e 9b3f 8288 54bf
00000380: 371c cc3b 1f7e 82be eb64 d33d 4b86 ea3d
00000390: 245a 833f d53c c7be d02a afbb b746 d5be
000003a0: 523b 4cbe 0702 debd 2538 113f f1d0 afbd
000003b0: 9569 4ebe d1b4 0ebf 6aa3 7fbf db09 96be
000003c0: 10b1 d3bd 2da5 fa3c dd29 72be 5114 7f3e
000003d0: d54c 683f ac5f f43e f0a9 09bf e3df 923f
000003e0: bbaa 88bf 4723 a03f 60c2 9abf 2b94 c43e
000003f0: 795f 68bc 50ba 22bf 2239 903f 1cef ca3e
